android/app/src/main/assets/classifier.tflite (tflite, 36960 bytes, 6 tensors)

model/dense/BiasAdd/ReadVariableOp/resource f4 [128]
-0.0025454236 0.04150215 -0.025216665 -0.0055766506 0.022780456 -0.057205908 0.010897769 0.024643222
-0.07043234 0.0044922535 0.003643545 -0.060447298 0.03744281 -0.008034102 -0.013693049 0.020302584
-0.024845509 -0.05065864 0.02127369 -0.03883826 -0.01852667 -0.08673877 0.05193063 -0.025450714
-0.01380734 -0.018940391 -0.023050655 0.08865792 -0.03459457 -0.013581202 -0.02028288 0.02638637
0.016039766 0.026564436 -0.05831973 -0.08541861 0.0008768672 0.017626481 0.0032177712 -0.0048340824
0.010388933 0.04727731 -0.06292036 -0.044958107 0.02878791 0.011770081 -0.02572665 0.06733945
0.0480983 0.035431173 -0.040466245 -0.041472122 0.041756622 0.015972948 0.094883375 -0.008988817
-0.008444481 -0.07705253 -0.03167996 0.04581433 -0.03528474 -0.04711419 -0.050398298 -0.011634263
-0.03491256 0.016014583 0.07928599 0.014641356 -0.0041918373 0.006126033 -0.008595592 -0.06254091
0.04618881 -0.021053735 0.05401431 0.035037834 -0.017160896 0.015106056 -0.003950417 0.027821956
-0.0026715586 0.013997993 0.0019392833 0.039975587 -0.08386502 0.008306738 -0.034376875 0.006750605
-0.007935402 0.008053048 -0.08591357 -0.026380524 -0.00043798017 0.059289813 0.010095295 -0.022425674
0.026063588 -0.092225656 -0.05637842 0.043589372 -0.01430639 0.033236306 -0.0035510464 0.0058192504
-0.023300722 0.0033253 0.04723711 -0.046339616 0.022334633 0.017184738 0.025340656 -0.0051362324
0.0021853917 0.024666268 -0.02554993 -0.021413445 -0.047012243 0.053196415 0.0062492187 0.03787694
0.0647959 -0.05322847 0.008628071 -0.02331642 -0.0036873124 -0.056492753 0.0077786306 0.035089806
00000000: 1fd1 26bb 29fe 293d 2e93 cebc 56bc b6bb
00000010: 149e ba3c be50 6abd 8e8c 323c 95e0 c93c
00000020: d53e 90bd c133 933b 8bc8 6e3b 9697 77bd
00000030: a25d 193d 77a1 03bc cf58 60bc 9b51 a63c
00000040: cf88 cbbc 6f7f 4fbd 2946 ae3c de14 1fbd
00000050: 3ec5 97bc 19a4 b1bd 36b5 543d 047e d0bc
00000060: 2e38 62bc e128 9bbc bad4 bcbc 4992 b53d
00000070: 09b3 0dbd b183 5ebc 4828 a6bc 3b28 d83c
00000080: d465 833c a99d d93c abe0 6ebd f4ef aebd
00000090: 90dd 653a 6965 903c 3ee1 523b 3967 9ebb
000000a0: 5836 2a3c daa5 413d 64dc 80bd fe25 38bd
000000b0: 9fd4 eb3c 4cd7 403c b2c0 d2bc 44e9 893d
000000c0: b902 453d 4720 113d efbf 25bd acde 29bd
000000d0: fe08 2b3d b3d9 823c 3752 c23d d545 13bc
000000e0: b85a 0abc b8cd 9dbd d9c2 01bd cfa7 3b3d
000000f0: bb86 10bd cffa 40bd 726e 4ebd a39d 3ebc
00000100: 7900 0fbd 0431 833c b160 a23d 4ce2 6f3c
00000110: ae5b 89bb e4bc c83b 87d4 0cbc 7315 80bd
00000120: 7a30 3d3d e278 acbc 1c3e 5d3d d583 0f3d
00000130: 0295 8cbc 647f 773c 8072 81bb dfea e33c
00000140: 5115 2fbb d757 653c 8d2f fe3a 71bd 233d
00000150: 6cc1 abbd fc18 083c c4ce 0cbd 2e34 dd3b
00000160: 7d03 02bc eef0 033c 74f3 afbd f81b d8bc
00000170: b4a0 e5b9 e0d9 723d bc66 253c 0cb6 b7bc
00000180: 4e83 d53c cee0 bcbd 0fed 66bd c58a 323d
00000190: 5965 6abc cb22 083d acb8 68bb 69af be3b
000001a0: 28e1 bebc 47ed 593b b37b 413d 9cce 3dbd
000001b0: 1ff7 b63c 02c7 8c3c 3597 cf3c d74d a8bb
000001c0: ca38 0f3b ea10 ca3c 164e d1bc 406b afbc
000001d0: e98f 40bd 7ce4 593d 3fc6 cc3b da24 1b3d
000001e0: b6b3 843d 1906 5abd c15c 0d3c 1402 bfbc
000001f0: d6a6 71bb f264 67bd e2e3 fe3b 54ba 0f3d

model/dense_1/BiasAdd/ReadVariableOp/resource f4 [64]
0.036773946 -0.025345974 -0.020711107 0.03297529 0.010157908 -0.050754145 0.08229243 0.15159339
0.05076064 0.09550687 0.09462963 0.16881555 0.094828516 0.13293996 0.014525529 -0.027270757
0.0049315393 0.08498812 -0.07663281 0.07653912 0.02781119 0.08085307 0.09406237 0.14886813
0.060813915 0.06499656 0.07321356 0.17769076 0.17752391 0.02442147 0.030474864 0.10189173
-0.02393347 0.0694401 0.14084482 0.027078586 0.13949639 0.19059362 0.09045888 0.12718643
-0.030683044 0.010899747 -0.010150655 0.12127111 0.04763754 0.07047908 0.05922871 0.037368182
-0.038165953 0.0643254 0.11042946 -0.036880106 0.006875863 0.12877381 0.12471175 0.015497927
0.038709313 0.13092233 0.13518137 0.16534218 0.006177777 0.07081025 0.012439073 0.015926436
00000000: 47a0 163d 5ca2 cfbc 57aa a9bc 1911 073d
00000010: 5b6d 263c 94e3 4fbd ef88 a83d 4c3b 1b3e
00000020: 64ea 4f3d 1b99 c33d 2ecd c13d fcdd 2c3e
00000030: 7435 c23d 6a21 083e 7cfc 6d3c ec66 dfbc
00000040: c098 a13b 400e ae3d aaf1 9cbd 8bc0 9c3d
00000050: 4bd4 e33c 4b96 a53d c6a3 c03d e370 183e
00000060: 0318 793d eb1c 853d fef0 953d 91f4 353e
00000070: d4c8 353e 890f c83c 6ca6 f93c 9dac d03d
00000080: 2010 c4bc 9c36 8e3d a039 103e e9d3 dd3c
00000090: 24d8 0e3e f92a 433e 8142 b93d 293d 023e
000000a0: 025b fbbc da94 323c ef4e 26bc fd5c f83d
000000b0: 951f 433d 5657 903d ce99 723d 610f 193d
000000c0: e753 1cbd 09bd 833d d728 e23d 980f 17bd
000000d0: eb4e e13b 48dd 033e e068 ff3d 04eb 7d3c
000000e0: a88d 1e3d 8110 063e fc6c 0a3e 764f 293e
000000f0: f36e ca3b f704 913d 41cd 4b3c 2878 823c

model/dense_2/BiasAdd/ReadVariableOp/resource f4 [5]
0.15222593 0.03509433 -0.26606557 -0.019055469 0.018344488
00000000: 1de1 1b3e 12bf 0f3d bf39 88be 371a 9cbc
00000010: 2e47 963c

model/dense/MatMul i1 [128, 46] scale=0.0069749765 zero_point=0
0.13252455 -0.16042446 0.048824836 -0.3208489 0.0 -0.25807413 0.15344948 0.6137979
0.23017423 -0.17437442 -0.111599624 -0.299924 -0.3557238 -0.3626988 0.13252455 0.111599624
0.21622427 -0.12554958 0.1813494 0.13949953 0.027899906 -0.0069749765 -0.23714921 0.104624644
0.013949953 -0.299924 0.013949953 0.38362372 0.06277479 0.13949953 0.13949953 -0.2720241
-0.13949953 -0.17437442 0.034874883 0.36967376 -0.12554958 0.13252455 -0.12554958 0.118574604
-0.069749765 -0.104624644 0.055799812 -0.17437442 0.013949953 -0.104624644 0.16739944 0.1813494
0.28597403 -0.07672474 0.42547357 0.17437442 -0.118574604 0.20924929 -0.42547357 0.08369972
0.22319925 -0.29294902 0.299924 -0.3208489 -0.20924929 -0.24412417 -0.24412417 0.22319925
-0.118574604 0.02092493 0.09764967 0.16739944 -0.02092493 -0.19529934 0.104624644 -0.12554958
-0.13252455 0.0069749765 -0.23017423 0.104624644 -0.104624644 -0.07672474 0.18832436 -0.069749765
0.118574604 -0.055799812 -0.034874883 0.12554958 -0.14647451 0.15344948 0.25807413 0.02092493
-0.16042446 0.104624644 -0.13252455 0.23714921 -0.0069749765 0.2720241 -0.23714921 0.111599624
-0.21622427 -0.13252455 0.055799812 -0.013949953 -0.31387395 0.57892305 0.16042446 0.21622427
-0.034874883 0.013949953 0.118574604 -0.13949953 -0.111599624 -0.118574604 -0.08369972 0.17437442
-0.28597403 -0.0069749765 0.0 -0.06277479 -0.15344948 -0.20227432 0.15344948 -0.16739944
0.04184986 0.16042446 -0.07672474 -0.055799812 -0.104624644 -0.15344948 0.055799812 0.09764967
-0.17437442 -0.04184986 0.13949953 -0.31387395 -0.592873 -0.34874883 0.16739944 0.1813494
-0.46034846 -0.30689895 0.23017423 0.055799812 0.08369972 -0.027899906 0.034874883 0.027899906
-0.118574604 -0.17437442 -0.38362372 -0.027899906 -0.14647451 -0.09764967 -0.08369972 0.08369972
0.18832436 0.12554958 -0.08369972 0.048824836 0.111599624 0.07672474 -0.06277479 -0.034874883
0.0906747 0.1813494 -0.04184986 0.19529934 -0.02092493 0.09764967 -0.22319925 0.027899906
0.013949953 0.104624644 0.09764967 -0.17437442 0.104624644 0.13252455 -0.1813494 -0.048824836
-0.37664872 0.09764967 0.17437442 -0.17437442 -0.34177384 -0.027899906 -0.13949953 -0.15344948
0.20924929 -0.111599624 0.39757365 0.118574604 0.49522334 0.17437442 -0.111599624 0.13252455
-0.4463985 -0.25807413 -0.25109917 0.21622427 0.111599624 0.055799812 -0.08369972 0.013949953
-0.23714921 0.27899906 0.22319925 -0.034874883 -0.034874883 0.055799812 -0.09764967 -0.07672474
0.0069749765 0.02092493 0.048824836 -0.09764967 -0.22319925 -0.034874883 -0.12554958 0.034874883
0.16739944 0.02092493 -0.15344948 0.15344948 -0.3208489 0.0069749765 -0.28597403 0.20227432
0.23017423 -0.23017423 -0.299924 0.0069749765 -0.19529934 0.13949953 -0.3626988 -0.034874883
0.3626988 0.118574604 0.57194805 0.2720241 0.0906747 -0.06277479 -0.16042446 -0.39757365
0.13949953 -0.21622427 0.2650491 -0.18832436 -0.118574604 0.3557238 0.1813494 -0.048824836
0.28597403 0.0 -0.013949953 0.013949953 0.0906747 -0.0906747 0.12554958 0.07672474
00000000: 13e9 07d2 00db 1658 21e7 f0d5 cdcc 1310
00000010: 1fee 1a14 04ff de0f 02d5 0237 0914 14d9
00000020: ece7 0535 ee13 ee11 f6f1 08e7 02f1 181a
00000030: 29f5 3d19 ef1e c30c 20d6 2bd2 e2dd dd20
00000040: ef03 0e18 fde4 0fee ed01 df0f f1f5 1bf6
00000050: 11f8 fb12 eb16 2503 e90f ed22 ff27 de10
00000060: e1ed 08fe d353 171f fb02 11ec f0ef f419
00000070: d7ff 00f7 eae3 16e8 0617 f5f8 f1ea 080e
00000080: e7fa 14d3 abce 181a bed4 2108 0cfc 0504
00000090: efe7 c9fc ebf2 f40c 1b12 f407 100b f7fb
000000a0: 0d1a fa1c fd0e e004 020f 0ee7 0f13 e6f9
000000b0: ca0e 19e7 cffc ecea 1ef0 3911 4719 f013
000000c0: c0db dc1f 1008 f402 de28 20fb fb08 f2f5
000000d0: 0103 07f2 e0fb ee05 1803 ea16 d201 d71d
000000e0: 21df d501 e414 ccfb 3411 5227 0df7 e9c7
000000f0: 14e1 26e5 ef33 1af9 2900 fe02 0df3 120b

model/dense_1/MatMul i1 [64, 128] scale=0.0061433343 zero_point=0
0.15358336 0.19044337 -0.2334467 -0.030716673 0.16587003 -0.2887367 0.061433345 -0.024573337
0.012286669 -0.0061433343 0.2334467 0.061433345 -0.23959003 0.17815669 -0.13515335 0.24573338
-0.061433345 0.06757668 0.11058002 -0.3194534 -0.049146675 -0.19044337 0.18430004 -0.04300334
0.17201336 0.1965867 -0.024573337 -0.061433345 0.030716673 0.11058002 -0.018430002 -0.11058002
0.11058002 0.3440267 -0.36245674 -0.2518767 0.049146675 -0.06757668 -0.05529001 -0.22730337
-0.018430002 0.33174005 -0.2703067 -0.28259337 0.07372001 0.19044337 -0.4976101 0.0061433343
-0.10443668 0.07986335 -0.15358336 0.2334467 0.1965867 0.10443668 -0.06757668 0.030716673
-0.2518767 -0.17815669 0.05529001 0.11058002 -0.40546006 -0.1597267 -0.50989676 -0.18430004
-0.13515335 0.35631338 0.17201336 0.16587003 0.20887336 0.09829335 -0.30716673 -0.3931734
-0.061433345 0.09215002 -0.07372001 0.012286669 0.049146675 -0.012286669 -0.2703067 0.2518767
0.07986335 0.018430002 0.20273003 0.09215002 -0.14744002 -0.11672335 0.10443668 -0.15358336
0.061433345 0.07986335 -0.09829335 -0.28259337 0.018430002 0.030716673 0.07986335 -0.012286669
-0.04300334 -0.25802004 0.036860004 0.18430004 0.11058002 0.04300334 0.14744002 -0.09829335
0.12286669 -0.04300334 0.15358336 -0.061433345 -0.012286669 0.09829335 0.09215002 -0.23959003
0.09829335 0.024573337 -0.5160401 0.24573338 -0.3194534 0.10443668 -0.1965867 0.09829335
0.024573337 -0.38088673 -0.04300334 0.41774672 0.10443668 -0.33174005 0.4976101 0.18430004
-0.024573337 0.10443668 -0.12901002 -0.12901002 -0.20273003 0.22730337 0.036860004 -0.11672335
-0.15358336 -0.14129668 0.012286669 0.2887367 0.12286669 -0.07986335 0.0061433343 0.06757668
-0.05529001 -0.12901002 -0.33788338 0.31331006 0.05529001 0.0061433343 -0.15358336 -0.0061433343
-0.07372001 -0.07372001 -0.33174005 -0.05529001 0.17815669 -0.1965867 0.09215002 -0.06757668
0.2703067 0.08600668 0.24573338 -0.049146675 -0.08600668 -0.14129668 -0.33174005 -0.26416337
0.09215002 -0.20273003 0.10443668 0.11672335 -0.061433345 0.036860004 -0.04300334 -0.049146675
-0.17201336 -0.19044337 -0.22116004 -0.12901002 -0.14129668 0.061433345 -0.29488003 -0.09829335
0.049146675 -0.23959003 -0.17201336 0.20273003 0.3194534 0.012286669 -0.036860004 0.024573337
0.22730337 -0.16587003 0.024573337 0.22116004 -0.16587003 -0.22730337 0.20887336 0.07372001
0.09215002 -0.24573338 -0.1597267 0.13515335 -0.21501671 0.024573337 0.024573337 0.07372001
0.018430002 -0.2334467 -0.20887336 0.18430004 0.012286669 -0.32559672 -0.17201336 0.12901002
-0.036860004 0.0 -0.0061433343 0.12286669 -0.2334467 0.10443668 -0.14744002 -0.24573338
-0.22116004 0.07372001 0.22116004 -0.2334467 -0.18430004 -0.15358336 -0.17815669 0.061433345
0.28259337 -0.1597267 0.20887336 0.26416337 0.27645004 -0.1965867 -0.1965867 0.05529001
-0.25802004 -0.08600668 0.018430002 0.07372001 -0.12901002 -0.14129668 -0.15358336 -0.27645004
0.049146675 -0.24573338 -0.41774672 -0.07986335 -0.061433345 0.09829335 -0.04300334 -0.27645004
00000000: 191f dafb 1bd1 0afc 02ff 260a d91d ea28
00000010: f60b 12cc f8e1 1ef9 1c20 fcf6 0512 fdee
00000020: 1238 c5d7 08f5 f7db fd36 d4d2 0c1f af01
00000030: ef0d e726 2011 f505 d7e3 0912 bee6 ade2
00000040: ea3a 1c1b 2210 cec0 f60f f402 08fe d429
00000050: 0d03 210f e8ed 11e7 0a0d f0d2 0305 0dfe
00000060: f9d6 061e 1207 18f0 14f9 19f6 fe10 0fd9
00000070: 1004 ac28 cc11 e010 04c2 f944 11ca 511e
00000080: fc11 ebeb df25 06ed e7e9 022f 14f3 010b
00000090: f7eb c933 0901 e7ff f4f4 caf7 1de0 0ff5
000000a0: 2c0e 28f8 f2e9 cad5 0fdf 1113 f606 f9f8
000000b0: e4e1 dceb e90a d0f0 08d9 e421 3402 fa04
000000c0: 25e5 0424 e5db 220c 0fd8 e616 dd04 040c
000000d0: 03da de1e 02cb e415 fa00 ff14 da11 e8d8
000000e0: dc0c 24da e2e7 e30a 2ee6 222b 2de0 e009
000000f0: d6f2 030c ebe9 e7d3 08d8 bcf3 f610 f9d3

model/dense_2/MatMul f4 [5, 64]
0.16388185 -0.3350854 -0.3624483 -0.45064 0.0011460629 -0.3165678 -0.6102897 0.39964908
-0.11473323 0.43937913 0.14968774 0.3230412 0.11365669 -0.2740307 0.039000455 -0.85639757
0.15221024 0.08342802 -0.6047918 0.3472784 -0.75712144 -0.5600563 -0.3132762 0.42762554
0.1243735 0.068951756 0.2009702 0.4101105 0.31848264 -0.4249369 -0.08088979 -0.26066616
-0.38439348 -0.7127052 0.19386992 -0.23723625 0.43418872 0.35233974 0.44244713 0.25814918
0.10548296 -0.73762226 -0.8356893 0.33963233 -0.2895893 -0.3616583 -0.5254261 -0.50779086
0.16504885 -0.6099021 0.30460596 -0.22735879 -0.13882585 0.27698627 0.23063432 0.09682602
-0.66487867 0.3796738 0.36859345 0.5354414 -0.1262351 -0.048346445 -0.30101573 -0.47751108
0.433203 -0.508746 -0.4304216 0.40232545 -0.10018406 -0.35598895 -0.1998027 0.43576726
-0.12593651 0.45582107 0.28445512 -0.43549827 -0.65773404 0.3034327 -0.68313223 0.0492276
0.08616789 0.34450066 -0.24886176 -0.6719615 -0.5247446 0.41286457 0.19408019 0.16140665
0.28922302 0.122458264 -0.6968659 0.24073364 -0.41211757 -0.4433244 -0.27131274 0.390629
-0.50365824 0.45618522 0.40677315 -0.4532423 -0.5578134 -0.4706965 -0.39551404 -0.6573639
-0.10855218 0.43718934 0.1621662 -0.47310644 -0.7325498 0.43773857 0.25806215 0.089077726
-0.19672367 0.56683064 0.036334913 -0.287097 -0.29083225 -0.4522648 0.47904778 -0.26910132
-0.3027653 -0.8177761 0.3854435 -0.44497666 0.45128113 -0.91987723 0.45203 -0.5575906
-0.14487207 0.71992373 0.5503311 0.057446267 0.48210865 0.58888775 -0.46904442 -0.8028211
0.012193444 -0.5209458 -0.20029196 -0.50683737 -0.7005611 -0.57727474 0.35299382 0.004599629
0.32110927 -0.5479069 0.14894632 0.33948255 0.27565733 0.23439716 0.23060232 -0.70605206
0.30442426 0.1948303 -0.34234375 -0.5653772 -0.79990244 -0.38341856 -0.48030043 0.3207981
0.36004668 0.3441439 -0.6650678 -0.46577623 -0.44417346 -0.67318475 0.060308877 -0.6470894
0.3615058 -0.3809495 0.1052129 0.2612175 0.45845202 0.31702164 -0.5199429 -0.4168107
0.0021578819 -0.44018167 0.24270174 0.4939182 -0.42341036 -0.33466944 -0.5534117 0.39543238
-0.477525 -0.44112545 -0.6809549 -0.52594876 -0.3021597 0.063115954 -0.6330666 -0.42693612
-0.5667046 -0.29365832 0.047896173 -0.8219516 -0.4409134 -0.084065944 0.52476907 0.003321593
0.31358737 -0.594727 -0.7595264 0.40759805 0.04654979 0.20176047 -0.15406083 0.05411868
-0.7962963 -0.7619486 -0.32647714 -0.38355133 -0.20955276 -0.67426175 -0.8197614 -0.03461018
-1.0694913 -0.9226756 0.27717343 0.33444476 0.34506693 0.68201214 0.49879074 -0.67160314
-0.34358 0.082086295 0.14459375 0.5373854 0.39561695 0.22434688 -0.20941174 -0.040522818
-0.6770317 -0.06791692 0.13533731 0.27166587 -0.46419626 -0.6740603 0.33468193 0.46163237
-0.1606089 -0.60251564 0.35725865 -0.0886319 0.39819846 0.22004691 -0.42501745 -0.5128047
0.5631734 -0.027015958 -0.59610564 -0.20473431 -0.31886014 0.13112622 -0.25018853 0.32353333
00000000: a5d0 273e 5090 abbe d392 b9be 49ba e6be
00000010: 7d37 963a 2d15 a2be f23b 1cbf ce9e cc3e
00000020: 41f9 eabd 4df6 e03e be47 193e a865 a53e
00000030: d7c4 e83d c04d 8cbe f1be 1f3d df3c 5bbf
00000040: 00dd 1b3e 4fdc aa3d a3d3 1abf 79ce b13e
00000050: b6d2 41bf da5f 0fbf bd65 a0be bcf1 da3e
00000060: 89b7 fe3d 9436 8d3d 22cb 4d3e 01fa d13e
00000070: 2810 a33e 5491 d9be 8ca9 a5bd 0976 85be
00000080: 39cf c4be d973 36bf d685 463e 0fee 72be
00000090: fc4d de3e e065 b43e 6e88 e23e 212c 843e
000000a0: 7307 d83d d0d4 3cbf bcef 55bf 4ae4 ad3e
000000b0: 0c45 94be 472b b9be 5382 06bf 95fe 01bf
000000c0: 9102 293e 8b22 1cbf 50f5 9b3e bed0 68be
000000d0: 5d28 0ebe 25d1 8d3e 672b 6c3e b84c c63d
000000e0: 7d35 2abf 9b64 c23e 48b8 bc3e b012 093f
000000f0: c643 01be ec06 46bd bc1e 9abe 557c f4be
00000100: c9cc dd3e 2e3d 02bf 3860 dcbe 9afd cd3e
00000110: 4d2d cdbd 2f44 b6be 1499 4cbe e31c df3e
00000120: 80f5 00be 6161 e93e 1aa4 913e a1f9 debe
00000130: 4261 28bf 885b 9b3e c1e1 2ebf e1a2 493d
00000140: ca78 b03d 6462 b03e 9ed5 7ebe ab05 2cbf
00000150: a955 06bf fc62 d33e f5bc 463e c947 253e
00000160: 0a15 943e 66cb fa3d ce65 32bf e182 763e
00000170: 1301 d3be 6afb e2be 81e9 8abe 8600 c83e
00000180: bfef 00bf 1c91 e93e 9244 d03e 600f e8be
00000190: dccc 0ebf 22ff f0be d180 cabe 0049 28bf
000001a0: 9b50 debd 48d7 df3e e50e 263e 023b f2be
000001b0: 6288 3bbf 451f e03e b920 843e 626e b63d
000001c0: ee71 49be d01b 113f ebd3 143d 61fe 92be
000001d0: f7e7 94be 408f e7be c045 f53e a6c7 89be
000001e0: 0e04 9bbe c659 51bf da58 c53e fbd3 e3be
000001f0: 520e e73e 137d 6bbf 7a70 e73e 42be 0ebf
00000200: 5859 14be ec4c 383f 80e2 0c3f c74c 6b3d
00000210: f2d6 f63e 59c1 163f 9726 f0be af85 4dbf
00000220: 03c7 473c b45c 05bf 5619 4dbe 18c0 01bf
00000230: f957 33bf 47c8 13bf 9bbb b43e 7cb8 963b
00000240: 6f68 a43e a043 0cbf 6285 183e a8d0 ad3e
00000250: f522 8d3e cf05 703e 0423 6c3e d4bf 34bf
00000260: 7fdd 9b3e 9881 473e ae47 afbe 8fbc 10bf
00000270: 68c6 4cbf 704f c4be f0e9 f5be a63f a43e
00000280: 0a58 b83e a133 b03e e241 2abf 397a eebe
00000290: b46a e3be d655 2cbf 7106 773d a7a7 25bf
000002a0: 4a17 b93e d00b c3be dc79 d73d 4dbe 853e
000002b0: 39ba ea3e a950 a23e fa1a 05bf 3668 d5be
000002c0: 406b 0d3b 7e5f e1be ce86 783e d9e2 fc3e
000002d0: 3ec9 d8be cb59 abbe 64ac 0dbf 1d76 ca3e
000002e0: 287e f4be 32db e1be 0f53 2ebf 94a4 06bf
000002f0: adb4 9abe f042 813d a710 22bf 5f97 dabe
00000300: 8d13 11bf 625a 96be c72e 443d 6c6b 52bf
00000310: 67bf e1be c42a acbd 4457 063f 15af 593b
00000320: 868e a03e 0740 18bf 5270 42bf b1b0 d03e
00000330: feaa 3e3d 4c9a 4e3e 1fc2 1dbe 8dab 5d3d
00000340: 13da 4bbf 100f 43bf 0328 a7be d760 c4be
00000350: 0095 56be 6b9c 2cbf e2db 51bf 67c3 0dbd
00000360: 17e5 88bf 7834 6cbf ade9 8d3e 583c ab3e
00000370: 9dac b03e 5998 2e3f 8061 ff3e 2fee 2bbf
00000380: b8e9 afbe dc1c a83d 6210 143e 1792 093f
00000390: 4e8e ca3e 30bb 653e 0870 56be 41fb 25bd
000003a0: f351 2dbf 0718 8bbd dd95 0a3e ca17 8b3e
000003b0: 22ab edbe 378f 2cbf 6e5b ab3e 145b ec3e
000003c0: a976 24be 773e 1abf 9bea b63e a484 b5bd
000003d0: abe0 cb3e fa53 613e e39b d9be 2b47 03bf
000003e0: 222c 103f 9250 ddbc 619a 18bf dfa5 51be
000003f0: a341 a3be f445 063e b618 80be 29a6 a53e
