android/app/src/main/assets/pose_classifier.tflite (tflite, 27040 bytes, 6 tensors)

model/dense_2/BiasAdd/ReadVariableOp/resource f4 [3]
00000000: 8b1a b83b e0c3 88bb e081 79bc
0.0056183985 -0.0041737407 -0.0152287185

model/dense_1/BiasAdd/ReadVariableOp/resource f4 [64]
00000000: 1169 353d e62d 253d 0899 673d c43d 763d
00000010: d271 a23d 3fbc a03d b2cc 963c 03bb d33d
00000020: 09ec b63d 88fe 923d 8de0 c93d ab45 243d
00000030: b755 ddbc 4449 6c3d 4128 223d 40f7 1e3d
00000040: 0955 273d 1e5a c63d aad9 9a3c 8c04 ba3d
00000050: bb55 623d 1d25 653d f496 2c3d 924d 713d
00000060: d8b8 c73d c961 493d 212d 563d 36ab 443d
00000070: a116 503d ed77 e63c 04b4 253d 7322 4a3d
00000080: 1d2b ac3d f6fb 8b3d 51a8 593d 619a 833d
00000090: e462 b23d 24f5 c4bc cbc8 183d f011 913d
000000a0: faa0 913d 5104 363d 2cf2 3e3d 5faa a03d
000000b0: 471b 203d 51fd 2a3d 9a6e 023e e555 783d
000000c0: 1ae0 a93d ee1f 883d c1c2 873d 3dc6 953d
000000d0: 9d03 613d 1675 a73d 35bb d63c 4b4c 7b3d
000000e0: af47 b63d e4cb ab3c 6b5b 4bbd 3ad6 593d
000000f0: 282f 153e 98fa 523d 9a3b ac3c 7d15 cf3d
0.044289652 0.040326975 0.056542426 0.060117498 0.07931866 0.07848405 0.018408153 0.10338404
0.08931739 0.07177454 0.09857283 0.040105503 -0.027018411 0.05768706 0.03958917 0.038810015
0.04085258 0.09685157 0.018902618 0.090828985 0.05525754 0.055943597 0.042136148 0.058911867
0.09752053 0.04916552 0.052289132 0.048014842 0.05080283 0.028133357 0.04045488 0.04934926
0.08406661 0.06835167 0.053139035 0.0642593 0.08710268 -0.024042673 0.037300866 0.070834994
0.07110782 0.04443771 0.04661767 0.07844996 0.039088514 0.041745488 0.12737504 0.06062879
0.08294697 0.06646715 0.06628943 0.073132016 0.054935087 0.08176629 0.026212314 0.061352056
0.08900391 0.020971246 -0.04964773 0.053182818 0.1456877 0.051508516 0.021024514 0.101115204

model/dense/BiasAdd/ReadVariableOp/resource f4 [128]
00000000: 92d9 a33c 32d9 893c d4ef 3fbc aeb3 a6bd
00000010: fb8e 0ebd d312 47bd a60c 71bd f3de a8bd
00000020: e91c cabb 9363 7ebc eb7d 4f3d 45d4 c5bc
00000030: 0000 0000 0bc9 28bd 9bf8 5cbc c1d1 1abd
00000040: 1988 a73c 8846 f7bc 5f83 19bb 0000 0000
00000050: 122f c6bc b623 e63d 71a4 24bc 2875 42bc
00000060: c5e7 98bd 4ec9 e1bc 87d5 2ebd 0000 0000
00000070: 3da9 45bc 4866 2c3c bfdf 50bc d238 0d3d
00000080: 4f48 98bb e157 bdbb bfb5 2cbc 8674 2c3a
00000090: 0000 0000 5887 00bd 8f04 983d f050 6d3d
000000a0: a697 3f3d b33f 88bc 7944 8cbd 3e00 bd3d
000000b0: 7d9c c0bc 6180 a53b b060 49b8 bd60 603d
000000c0: d3f4 41bc c7a3 d6bc e941 6b3c 4526 97bc
000000d0: 2a96 acbd 3293 0cbd eb50 7bbc 2cc6 eb3c
000000e0: d3d3 e63a a9fa 3e3c 4bec cfbb b7b2 04bd
000000f0: 1c4c e2bb 43b4 c93c d8b6 683c f8d2 1fbd
00000100: 0000 0000 5c66 27bb 0000 0000 6fc8 febb
00000110: 8a70 e13d b18c 3fbd cfb3 ddbc 0000 0000
00000120: 679e e93c 0000 0000 9a81 493d 94c7 853c
00000130: c470 573d 9652 fabb 31da 00bd 16f4 9bbd
00000140: a688 323d f75d 13bd 59a9 953d 0000 0000
00000150: 1831 bbbc a773 8dbc 8f2e 90bc 63e8 13bd
00000160: 264b e8bc b65f fc3b f49c e13d fa6d 913d
00000170: 5067 0abc d1a0 9bbc 49f7 01bd 711d e2bc
00000180: 9932 573d 6a81 c3bc 8a05 7e3c 6cb8 263d
00000190: 0000 0000 c387 afbc 14d4 49bc 9784 b1bb
000001a0: 0910 cc3d 98a6 4c3d c5f7 1abd 7b66 18bc
000001b0: be6d 6ebc 1349 463d 707b b9bb f167 63bd
000001c0: cd44 1fbd 4489 2f3c 03ff 083c 0000 0000
000001d0: b497 94bd 4cb9 8fbc 0085 ce3c 4287 7abc
000001e0: 0dfb 23bb 8d53 a13d 0000 0000 8d6b 6fbd
000001f0: ecd2 cbbc 1265 e7bc 7aea f73d e700 923b
0.020001207 0.0168272 -0.011714894 -0.0813974 -0.034804326 -0.048601937 -0.058849953 -0.08245649
-0.006167997 -0.01552667 0.050657194 -0.02414907 0.0 -0.041207355 -0.013487007 -0.037797693
0.020450639 -0.030185 -0.002342425 0.0 -0.024192367 0.1123728 -0.0100489715 -0.011868753
-0.074660815 -0.02756181 -0.042684104 0.0 -0.012064275 0.010522433 -0.012748658 0.034478016
-0.0046472917 -0.0057782982 -0.0105413785 0.00065786426 0.0 -0.031379074 0.074227445 0.057938516
0.046775483 -0.016631937 -0.068489976 0.09228562 -0.02351212 0.0050507043 -4.801218e-05 0.054779757
-0.011838156 -0.026201142 0.014358976 -0.018450866 -0.08427079 -0.034320064 -0.015339117 0.02878102
0.0017610736 0.011656442 -0.006345307 -0.032397 -0.0069060456 0.024622088 0.01420375 -0.039019555
0.0 -0.0025543189 0.0 -0.0077753584 0.11007793 -0.046765033 -0.027063278 0.0
0.028517915 0.0 0.049195863 0.016330518 0.052597776 -0.0076392395 -0.031458084 -0.07614915
0.04358735 -0.035978284 0.07307691 0.0 -0.022850558 -0.017267061 -0.017600326 -0.036110293
-0.028356146 0.0077018393 0.110162646 0.071010545 -0.008447483 -0.018997582 -0.03172997 -0.02760193
0.052538488 -0.02386542 0.01550425 0.040703222 0.0 -0.02142704 -0.01231863 -0.0054174173
0.09963996 0.049963564 -0.037833948 -0.009301777 -0.014552532 0.048409533 -0.005660467 -0.055519048
-0.038883973 0.010713879 0.008361581 0.0 -0.072554976 -0.017544411 0.025209904 -0.015291037
-0.0025021464 0.07877264 0.0 -0.058452178 -0.024880849 -0.028246436 0.1210527 0.004455674

model/dense/MatMul i1 [128, 34] scale=0.008688548 zero_point=0
00000000: e50f e8f1 0308 ff00 03f4 ea10 13f1 d800
00000010: 1eeb f7eb 0401 d308 37e1 f549 054c ff1d
00000020: 18fc d90c d813 cefe e21d d3fc dafc e0f4
00000030: e315 e8ed f311 f519 f60b 27e7 f426 f71a
00000040: fdf1 fc0e 0908 f0fd 1107 06ee eb0f 03f8
00000050: fa08 f7fe 0c13 f4ed 0809 0809 14fa 01fb
00000060: 1016 f3e9 f9ed 1ef1 13f2 fbe3 10e5 1208
00000070: 0808 fd12 f801 e4f5 f6ef 04f8 e90f 05f1
00000080: e805 ead9 fd07 eff1 09f7 2b0c 2e05 03f6
00000090: 0a0d f5f3 13ee 03ee 2208 05fa 1ded f307
000000a0: f61a 0a0f 000e 05f3 0713 10f2 060c 1eff
000000b0: 1ee6 17ef 08eb e9f9 12fa fbfa eff9 ffec
000000c0: 030c 0506 1aca e8c9 e60e 06f0 12f7 11f0
000000d0: 09f8 0fec 0cf9 02f2 1403 fae7 f2ed fdeb
000000e0: 02ea ff05 1807 fd02 fbeb 04f3 ff0c 1407
000000f0: 20ec fcfe fcfa 26ea 0c02 1bec f7f1 d608
-0.23459078 0.13032821 -0.20852515 -0.13032821 0.026065644 0.06950838 -0.008688548 0.0
0.026065644 -0.104262576 -0.19114804 0.13901676 0.16508241 -0.13032821 -0.3475419 0.0
0.26065642 -0.1824595 -0.07819693 -0.1824595 0.03475419 0.008688548 -0.39098465 0.06950838
0.4778701 -0.269345 -0.09557402 0.634264 0.043442737 0.66032964 -0.008688548 0.25196788
0.20852515 -0.03475419 -0.33885336 0.104262576 -0.3475419 0.16508241 -0.43442738 -0.017377095
-0.26065642 0.25196788 -0.39098465 -0.03475419 -0.33016482 -0.03475419 -0.27803352 -0.104262576
-0.25196788 0.1824595 -0.20852515 -0.16508241 -0.11295112 0.14770532 -0.09557402 0.21721369
-0.086885475 0.09557402 0.33885336 -0.21721369 -0.104262576 0.33016482 -0.07819693 0.22590224
-0.026065644 -0.13032821 -0.03475419 0.12163967 0.07819693 0.06950838 -0.13901676 -0.026065644
0.14770532 0.060819834 0.052131288 -0.15639386 -0.1824595 0.13032821 0.026065644 -0.06950838
-0.052131288 0.06950838 -0.07819693 -0.017377095 0.104262576 0.16508241 -0.104262576 -0.16508241
0.06950838 0.07819693 0.06950838 0.07819693 0.17377095 -0.052131288 0.008688548 -0.043442737
0.13901676 0.19114804 -0.11295112 -0.1998366 -0.060819834 -0.16508241 0.26065642 -0.13032821
0.16508241 -0.12163967 -0.043442737 -0.25196788 0.13901676 -0.23459078 0.15639386 0.06950838
0.06950838 0.06950838 -0.026065644 0.15639386 -0.06950838 0.008688548 -0.24327934 -0.09557402
-0.086885475 -0.14770532 0.03475419 -0.06950838 -0.1998366 0.13032821 0.043442737 -0.13032821
-0.20852515 0.043442737 -0.19114804 -0.33885336 -0.026065644 0.060819834 -0.14770532 -0.13032821
0.07819693 -0.07819693 0.37360755 0.104262576 0.3996732 0.043442737 0.026065644 -0.086885475
0.086885475 0.11295112 -0.09557402 -0.11295112 0.16508241 -0.15639386 0.026065644 -0.15639386
0.29541063 0.06950838 0.043442737 -0.052131288 0.25196788 -0.16508241 -0.11295112 0.060819834
-0.086885475 0.22590224 0.086885475 0.13032821 0.0 0.12163967 0.043442737 -0.11295112
0.060819834 0.16508241 0.13901676 -0.12163967 0.052131288 0.104262576 0.26065642 -0.008688548
0.26065642 -0.22590224 0.1998366 -0.14770532 0.06950838 -0.1824595 -0.1998366 -0.060819834
0.15639386 -0.052131288 -0.043442737 -0.052131288 -0.14770532 -0.060819834 -0.008688548 -0.17377095
0.026065644 0.104262576 0.043442737 0.052131288 0.22590224 -0.46918157 -0.20852515 -0.4778701
-0.22590224 0.12163967 0.052131288 -0.13901676 0.15639386 -0.07819693 0.14770532 -0.13901676
0.07819693 -0.06950838 0.13032821 -0.17377095 0.104262576 -0.060819834 0.017377095 -0.12163967
0.17377095 0.026065644 -0.052131288 -0.21721369 -0.12163967 -0.16508241 -0.026065644 -0.1824595
0.017377095 -0.19114804 -0.008688548 0.043442737 0.20852515 0.060819834 -0.026065644 0.017377095
-0.043442737 -0.1824595 0.03475419 -0.11295112 -0.008688548 0.104262576 0.17377095 0.060819834
0.27803352 -0.17377095 -0.03475419 -0.017377095 -0.03475419 -0.052131288 0.33016482 -0.19114804
0.104262576 0.017377095 0.23459078 -0.17377095 -0.07819693 -0.13032821 -0.364919 0.06950838

model/dense_1/MatMul i1 [64, 128] scale=0.005054826 zero_point=0
00000000: 181c f3ec 3003 0801 fb46 0248 13f5 07e9
00000010: f82b 2b0a 0129 e5e3 d60d f9de e929 5225
00000020: 44e0 0428 e5f9 e52a 07d7 f436 e0e1 3423
00000030: 1502 0e37 fd53 2431 2a28 18c4 0142 09f9
00000040: fff6 f517 37e0 21e4 0c0a 0932 1df7 f001
00000050: 13e3 02e5 1d15 53c1 4957 3e1e f817 2e28
00000060: 3944 f023 0b0b 0adf 5e28 fc15 00fa 0efe
00000070: c21b daea d921 ddff ef19 08fa f309 2f0c
00000080: eff5 10e9 030c e3f5 1dfd 05f9 e2e2 d4f8
00000090: d600 3821 22f7 d0f3 07e0 cce6 e136 532e
000000a0: 08fe 08fd f714 bcfc ead0 1003 090d 32bb
000000b0: 26ea 2925 1be2 ea19 0501 d6e8 0f3f f526
000000c0: f0e6 1bfa f511 f7f6 e805 cd66 0814 2339
000000d0: d12a 2af2 0f14 13d0 040a 0907 e2d9 ef04
000000e0: 29dd dff4 0f5e 090a 2635 fa05 f7ae f924
000000f0: e908 f4fc d5e1 0c20 2eaf f918 27fd 25fe
0.12131582 0.14153513 -0.065712735 -0.10109652 0.24263164 0.015164478 0.040438607 0.005054826
-0.02527413 0.35383782 0.010109652 0.36394745 0.096041694 -0.055603087 0.035383783 -0.116261
-0.040438607 0.21735752 0.21735752 0.05054826 0.005054826 0.20724787 -0.1364803 -0.14658995
-0.21230268 0.065712735 -0.035383783 -0.17186408 -0.116261 0.20724787 0.41449574 0.18702856
0.34372815 -0.16175443 0.020219304 0.20219304 -0.1364803 -0.035383783 -0.1364803 0.21230268
0.035383783 -0.20724787 -0.06065791 0.2729606 -0.16175443 -0.1566996 0.26285094 0.17691891
0.10615134 0.010109652 0.07076757 0.27801543 -0.015164478 0.41955054 0.18197373 0.24768648
0.21230268 0.20219304 0.12131582 -0.30328956 0.005054826 0.33361852 0.04549343 -0.035383783
-0.005054826 -0.05054826 -0.055603087 0.116261 0.27801543 -0.16175443 0.16680926 -0.14153513
0.06065791 0.05054826 0.04549343 0.2527413 0.14658995 -0.04549343 -0.080877215 0.005054826
0.096041694 -0.14658995 0.010109652 -0.1364803 0.14658995 0.10615134 0.41955054 -0.31845403
0.36900228 0.43976986 0.3133992 0.15164478 -0.040438607 0.116261 0.232522 0.20219304
0.28812507 0.34372815 -0.080877215 0.17691891 0.055603087 0.055603087 0.05054826 -0.16680926
0.47515363 0.20219304 -0.020219304 0.10615134 0.0 -0.030328956 0.07076757 -0.010109652
-0.3133992 0.1364803 -0.19208339 -0.111206174 -0.1971382 0.16680926 -0.17691891 -0.005054826
-0.08593204 0.12637065 0.040438607 -0.030328956 -0.065712735 0.04549343 0.23757681 0.06065791
-0.08593204 -0.055603087 0.080877215 -0.116261 0.015164478 0.06065791 -0.14658995 -0.055603087
0.14658995 -0.015164478 0.02527413 -0.035383783 -0.15164478 -0.15164478 -0.22241235 -0.040438607
-0.21230268 0.0 0.28307027 0.16680926 0.17186408 -0.04549343 -0.24263164 -0.065712735
0.035383783 -0.16175443 -0.26285094 -0.13142547 -0.1566996 0.2729606 0.41955054 0.232522
0.040438607 -0.010109652 0.040438607 -0.015164478 -0.04549343 0.10109652 -0.34372815 -0.020219304
-0.111206174 -0.24263164 0.080877215 0.015164478 0.04549343 0.065712735 0.2527413 -0.348783
0.19208339 -0.111206174 0.20724787 0.18702856 0.1364803 -0.15164478 -0.111206174 0.12637065
0.02527413 0.005054826 -0.21230268 -0.12131582 0.07582239 0.31845403 -0.055603087 0.19208339
-0.080877215 -0.13142547 0.1364803 -0.030328956 -0.055603087 0.08593204 -0.04549343 -0.05054826
-0.12131582 0.02527413 -0.2577961 0.5155922 0.040438607 0.10109652 0.17691891 0.28812507
-0.23757681 0.21230268 0.21230268 -0.07076757 0.07582239 0.10109652 0.096041694 -0.24263164
0.020219304 0.05054826 0.04549343 0.035383783 -0.15164478 -0.1971382 -0.08593204 0.020219304
0.20724787 -0.17691891 -0.16680926 -0.06065791 0.07582239 0.47515363 0.04549343 0.05054826
0.19208339 0.26790577 -0.030328956 0.02527413 -0.04549343 -0.41449574 -0.035383783 0.18197373
-0.116261 0.040438607 -0.06065791 -0.020219304 -0.21735752 -0.1566996 0.06065791 0.16175443
0.232522 -0.4094409 -0.035383783 0.12131582 0.1971382 -0.015164478 0.18702856 -0.010109652

model/dense_2/MatMul f4 [3, 64]
00000000: db9c 53bd 56a0 c53d cae9 d7be 62e3 48bd
00000010: 2474 ddbe 49b8 9a3e 9054 583d a291 81bd
00000020: 2517 a3bd 5541 97bc 5121 c53e 74cb 893e
00000030: fef5 a6bc 0e33 913e bb53 90be a491 613c
00000040: 9afc 04be b805 e6bd 0bd6 4fbe 03d6 893e
00000050: 96c4 183f 6150 de3e 9b1d 00bf a33c 9fbd
00000060: 4f91 9abe 88ea ea3e 2a05 8f3d 3c67 8bbe
00000070: cdbf d6be ec91 bb3d a4a4 bbbe 65f4 943e
00000080: b2ae 8dbe 4b57 d8be d929 b6be 6c09 993d
00000090: 47f5 143f f061 873e 8863 fcbe 10d7 ce3e
000000a0: 31dd 343e dd6d 37be 82af 15bf 445f 9ebe
000000b0: d14f c03e e6c0 d5be 5ee0 f7bd 9a1b 023f
000000c0: 68e8 8a3e da99 a53e 668b 7f3d bac0 51bd
000000d0: b444 013f 0c13 c23e 6ca0 37be 6647 d3be
000000e0: 92b2 063f 838d 86be 148c 49be b0cf b93e
000000f0: 6e86 5f3d 3bea 0bbe 9aa5 4ebe cc2b 3bbe
00000100: 830d aebb 89ce 94be 234c fabb 323e bbbe
00000110: 9135 963d 3a54 62be fe7a 15be 9d13 0a3e
00000120: dad8 1d3f e655 6e3d 81f1 bfbb 4bcc 90be
00000130: 8205 dbbd 7a9e 95be 0fbc 5a3e 1065 e8be
00000140: 9ffa d5be eaf3 0a3f 3aed 94be d971 d33e
00000150: 5e2c 06be d008 a1be 824c 6b3e 2ce3 7abe
00000160: 6030 8a3e 22aa afbe f833 b1be fd4a abbd
00000170: 2990 e13e c916 b7be b9ce 1ebe 23fe b3be
00000180: e2d8 053f 25e9 723e b8ae d33e 9d4a 99be
00000190: b8af 32be c96d 32bd b8a3 073d cdf4 82be
000001a0: 9ddb ccbe da61 013f 8742 dcbb d934 1c3f
000001b0: 6662 68bd f6f3 1b3e e128 0d3f 42d6 083b
000001c0: 4b8f 8c3e 2225 08bf 3304 4a3e ca3f 083f
000001d0: 9dce 00bf 9796 02bf f6c3 70be accb 10be
000001e0: 08ab 96be 782c a2be aee2 6ebe b2a8 0fbe
000001f0: 221b 8f3e 3617 f2be c19e d7be a577 e73e
00000200: 67bd 17bf 0244 bdbe bf5b 003e 6a0e 4b3d
00000210: 71b5 a33e f89f 003e 69ea bf3e 6936 1bbf
00000220: 6cae ed3c 439c 11bf 727d 8d3e acac b4be
00000230: b086 3b3e 667c 1dbd fb2f 453e c86a 8b3e
00000240: 0093 eb3e a397 123e 2985 673e 96d1 1ebf
00000250: 020f 5ebe 8880 06bf e484 c03d f6cf a03e
00000260: 0889 05bf 1f6e 25be b89a 743e dd41 aa3e
00000270: 0429 bebe baf3 d3be 4693 053f 8c1f ab3e
00000280: c215 a9be 2e51 08bf 3a53 3a3e d1bb 943e
00000290: 68c4 a0be 673e a23d 3b69 abbc f00a 95be
000002a0: e256 493e 4b45 ae3c c4b0 f6bd 71ba 00bf
000002b0: 2bc5 a7be 7b9f 913e fee5 1dbd 6933 ff3c
000002c0: 9f03 2cbf 6802 f93d e67d 28bf ab0c adbe
000002d0: cda7 b1be e8e4 453e 36ba bf3e d948 d83e
000002e0: a632 0dbf 67d0 8a3e 50d9 723e 4402 02be
000002f0: d7bd 41bf 7e54 ae3e 1791 983e cdff 0dbf
-0.05166326 0.09649722 -0.42170554 -0.049044974 -0.4325267 0.30218723 0.05281502 -0.063266054
-0.07963399 -0.01846377 0.3850198 0.26913035 -0.02038097 0.28359264 -0.2818888 0.013767634
-0.12986985 -0.112315595 -0.20296495 0.2692109 0.59674966 0.434207 -0.50045174 -0.077752374
-0.30188987 0.45882058 0.06983407 -0.272272 -0.41943207 0.09158692 -0.36649048 0.29092708
-0.27672344 -0.422541 -0.35578802 0.074725 0.58186764 0.26441908 -0.49294686 0.40398455
0.17662503 -0.17913003 -0.5847093 -0.30932057 0.37560895 -0.41748732 -0.121033415 0.50823367
0.27130437 0.32343942 0.0623888 -0.05120919 0.5049546 0.37905157 -0.1793229 -0.4126541
0.52616227 -0.2627984 -0.19682342 0.36291265 0.05457156 -0.1366357 -0.2018036 -0.18278426
-0.0053116693 -0.29063824 -0.0076384707 -0.3657089 0.07334436 -0.22102442 -0.14597699 0.13484044
0.61659014 0.058187388 -0.005857647 -0.28280863 -0.1069441 -0.2922247 0.21360801 -0.45389605
-0.4179277 0.54278433 -0.2908724 0.41297796 -0.13102862 -0.31452036 0.22978404 -0.24500722
0.26990032 -0.3430949 -0.34609962 -0.08363912 0.44055298 -0.3575957 -0.15508546 -0.35154828
0.5228406 0.2372175 0.41344237 -0.29939738 -0.17449844 -0.04356173 0.03311512 -0.25577393
-0.40011302 0.50539935 -0.006721798 0.6101814 -0.056734465 0.15229782 0.551405 0.002087966
0.27453074 -0.5318166 0.19728164 0.53222334 -0.50315267 -0.5101103 -0.23512253 -0.14140195
-0.2942736 -0.31674552 -0.23328659 -0.14029196 0.27950388 -0.47283334 -0.42113307 0.4520847
-0.5927338 -0.36965948 0.12534998 0.049574293 0.31974366 0.12561023 0.37483528 -0.606299
0.029013835 -0.5687906 0.2763477 -0.35287988 0.18313098 -0.038448714 0.19256584 0.27229905
0.4601059 0.14315657 0.2260939 -0.6203855 -0.21685413 -0.52539873 0.09400347 0.31408662
-0.5216222 -0.16155289 0.23887146 0.33253375 -0.37140667 -0.41396886 0.52177846 0.33422506
-0.33024412 -0.5324887 0.18195811 0.29049543 -0.31399846 0.079220586 -0.020924201 -0.29109907
0.1966205 0.021273276 -0.12045434 -0.50284487 -0.32767615 0.28441986 -0.038549416 0.031152444
-0.67193025 0.12158662 -0.65817106 -0.33798727 -0.34698334 0.19325602 0.37446755 0.42243078
-0.5515541 0.27112123 0.2371571 -0.12696177 -0.756803 0.34048837 0.29798195 -0.55468446
